src/model/model.pth (torch, 16799 bytes, 4 tensors)

linear1.weight f4 [256, 11]
000000 7e 4a 8d be 3d 40 f2 3d 90 ef d3 be 24 03 24 3f
       -0.27595896 0.11828659 -0.4139371 0.6406729
000010 bf 11 cc be 09 9f bc be ca 8c 5b 3f ae e1 87 be
       -0.3985729 -0.36840084 0.857617 -0.26539367
000020 97 29 04 bf ad d4 99 bf 48 98 a4 bd e6 42 47 be
       -0.5162596 -1.2018028 -0.08036858 -0.19459113
000030 29 e6 6e be da 7e f8 bd 4d fb 16 bf f7 86 1f bf
       -0.23329987 -0.1213357 -0.58977205 -0.62315315
000040 01 c6 e2 be 4a ba 34 bf 75 57 64 bc 9a 16 68 3d
       -0.4429169 -0.70596755 -0.013936867 0.05666218
000050 55 82 f4 bd 75 27 cb 3c f7 c4 95 be 49 dc e1 be
       -0.11938921 0.024799088 -0.29251835 -0.44113377
000060 8c 74 cb 3c 22 b1 b2 be 45 39 f9 be de 05 4e 3e
       0.024835847 -0.34900767 -0.48676506 0.20119426
000070 27 f6 a9 3e 9a 7a 84 bf 33 3c 23 bf 11 cf 81 3f
       0.33195612 -1.0349915 -0.6376373 1.0141317
000080 63 eb 15 3f 6f 5a 90 3b 0b 4b 18 3f 09 84 af 3b
       0.58562297 0.004405312 0.59489506 0.005356316
000090 11 c3 02 bf 41 e1 cf 3c 92 26 62 3d 0f f4 60 be
       -0.510789 0.025375964 0.055212565 -0.21968101
0000a0 b5 e5 87 be d7 73 e8 be 63 d4 8a be 34 fc dd be
       -0.2654244 -0.4540088 -0.27115163 -0.43356478
0000b0 13 df 6e 3e 38 98 71 bd 42 90 31 be 05 5d e8 3d
       0.23327284 -0.058983058 -0.17340186 0.11345867
0000c0 fb 25 36 be ce 17 86 bc 31 13 5b be cf 40 a2 be
       -0.17787926 -0.016368773 -0.2139404 -0.3169007
0000d0 58 5e 07 be 27 41 7a bd ca 1a a1 be 58 44 a7 3e
       -0.13219583 -0.06109729 -0.3146575 0.3266933
0000e0 55 fa 30 3d 22 d9 84 3d 97 85 ee be eb 63 20 bf
       0.043207485 0.06486727 -0.46586296 -0.6265246
0000f0 1c 58 16 bf b0 d4 14 3d e3 97 22 bf 9e a9 d8 be
       -0.58728194 0.036335647 -0.6351301 -0.42316908
000100 9f 2f a2 3e 0e 26 40 3d 86 7c 87 3e 85 0a 87 3f
       0.31676957 0.04691129 0.2646219 1.0550085
000110 ed 91 01 bf 82 b7 b1 3d 06 fc 1d 3f b0 6a 82 3d
       -0.5061329 0.086775795 0.6171268 0.06368005
000120 70 74 31 bf 9c 2e d6 be 50 bf 08 bf 12 07 0e 3f
       -0.69318295 -0.41832435 -0.5341692 0.5547954
000130 ed 48 5a bf 9c eb 35 3e 26 dc 6d be cd f7 5f bc
       -0.85267526 0.17765659 -0.23228511 -0.01366992
000140 02 73 00 ba 9b 0f cf bd 62 de 2c 3e 30 b8 ef bd
       -0.000489995 -0.101103984 0.16881707 -0.11705053
000150 87 71 c7 bd d9 fe 3d bd 57 6a 81 be f4 fb 8b be
       -0.097384505 -0.04638562 -0.25276443 -0.27340662
000160 8e aa 85 be e9 a2 14 3f 9b bc 0b 3e 26 14 d7 be
       -0.26106685 0.5806108 0.13646166 -0.4200756
000170 3c 77 7d bf a6 b6 80 bf 21 52 b9 be b7 e4 90 3e
       -0.9901006 -1.005574 -0.36195472 0.28299496
000180 47 8c 5a bf 0c e3 a2 3e 17 6e e3 bd d2 eb fe 3d
       -0.85370296 0.31813848 -0.11104982 0.12447323
000190 8b 7c 52 3e 22 e3 da 3e 5d ca 01 3e eb be 3c bf
       0.20555322 0.42751414 0.12674852 -0.7372882
0001a0 b4 7c de be 02 e2 eb be 97 1e 16 bf 40 31 01 be
       -0.43454516 -0.46070868 -0.58640426 -0.12616444
0001b0 eb d1 10 3e e8 cb 01 bf d7 9d eb 3c 57 51 d0 bd
       0.14142577 -0.5070176 0.028761787 -0.10171764
0001c0 f5 da 0c 3d 96 a8 12 bf 5e 8c 3d bf 3b 2b 10 bf
       0.0343885 -0.5728849 -0.7404231 -0.56315964
0001d0 19 fd 12 bf b0 ce e6 bd a2 3a 57 3d 2c 3e 84 be
       -0.57417446 -0.11269891 0.05254615 -0.25828683
0001e0 66 28 d4 be cc 48 f0 be 8a c4 91 bf 2d f5 20 bf
       -0.41437072 -0.4693054 -1.1388104 -0.6287411
0001f0 78 a6 1e be 36 50 38 bf 33 60 b2 bf f0 68 70 be
       -0.1549319 -0.7199739 -1.3935608 -0.2347753
000200 f9 63 4b be 45 75 b9 3e 3d 31 59 3f 25 0d f9 be
       -0.19862355 0.36222282 0.84840757 -0.4864284
000210 3e ea bb 3e bd 38 ba be f3 85 5f 3e 8d 55 65 3e
       0.3670215 -0.36371413 0.21828441 0.22395916
000220 c1 c1 0a 3f 17 de 4a be 92 3a 61 be 51 30 91 bf
       0.54201895 -0.19811283 -0.21994999 -1.134287
000230 6b 22 8a bf 84 29 90 bf cc 60 64 be a6 5f 95 be
       -1.0791754 -1.126267 -0.2230255 -0.29174536
000240 c2 90 7a be f9 cf 78 be 94 03 1e 3f 07 3e 61 3e
       -0.24469283 -0.24298085 0.6172421 0.21996318
000250 fc b4 96 bd c8 fc b1 3e 22 9b 29 bf ac 94 ad bf
       -0.07358739 0.3476317 -0.6625234 -1.3560996
000260 51 fb ca bf d8 d4 38 bf e7 8a 19 be 50 5d 50 be
       -1.5857946 -0.72199774 -0.14994393 -0.20348096
000270 d1 f4 6a be 0b b3 3e bf 18 11 07 bf dd 48 39 bf
       -0.22944953 -0.7449195 -0.5276046 -0.72376806
000280 97 95 2a bf 82 e3 9f 3d f5 46 b1 be 70 a3 ca bc
       -0.66634506 0.078070655 -0.34624448 -0.024736136
000290 f2 ac e0 3e 64 1b 00 3f b0 04 4a 3f 23 d2 d5 3e
       0.43881947 0.50041795 0.789134 0.41761884
0002a0 eb 4f b2 be 8e 5b 77 bf be 01 78 be aa ff bf be
       -0.34826598 -0.96624076 -0.24219415 -0.37499744
0002b0 8d 26 81 3e 65 80 9a 3e 60 04 11 3f cb d8 18 3f
       0.25224724 0.30176082 0.566473 0.597058
0002c0 a0 bf ac be 8f 14 8e 3e 6c b4 09 bf a9 c5 2d bf
       -0.33739948 0.2775006 -0.53790927 -0.6787973
0002d0 a6 f6 27 be 72 f8 8b bf c7 0b 99 be 1f a8 c9 3e
       -0.16402683 -1.0935194 -0.29891798 0.3938608
0002e0 27 39 d3 be 6f 92 ca be 7e 3b 16 bf 8f f0 80 3e
       -0.4125454 -0.39564845 -0.5868453 0.25183532
0002f0 14 45 e0 3e 06 14 84 3f 98 10 3b 3e 72 4c 37 bf
       0.43802702 1.0318611 0.18268049 -0.7160102
000300 97 ee 8a bf 20 3f ec 3e cf 56 df 3e 44 a4 91 bd
       -1.0854062 0.4614191 0.43620917 -0.07111409
000310 b3 14 3b bf 75 82 92 bf 44 f5 84 3e ed 89 be be
       -0.7307846 -1.1446062 0.25968373 -0.37214604
000320 f6 93 03 be e3 06 10 be 5e ff c6 be 3f 0d 9d be
       -0.12849411 -0.14065127 -0.38866705 -0.30674168
000330 5f 6a d8 be 8d 81 47 bf bb 34 a2 bd 87 d8 13 3e
       -0.42268655 -0.77932054 -0.07920214 0.14438067
000340 a9 39 d5 bc 05 92 60 3e c2 8b 03 3f e4 20 50 3d
       -0.026028471 0.21930702 0.5138513 0.050812617
000350 15 4e 0f 3e 5a cb 19 3f ba d1 81 be cb 3f 03 bf
       0.1399463 0.60075915 -0.2535532 -0.51269215
000360 ec 17 21 bf 93 94 47 3e e9 ba 8e be 23 32 6a bf
       -0.62927127 0.1949027 -0.27876976 -0.9148275
000370 24 da 80 3e fb 3e e4 be 49 16 8a be f4 b5 80 3e
       0.25166428 -0.445793 -0.26970127 0.2513882
000380 57 28 02 ba 22 0e 8b 3e ff 8c 3d 3d a1 46 94 3c
       -0.00049651176 0.2715922 0.046277042 0.018100085
000390 c7 da 37 be 35 dc 07 be 37 ba 80 bd d4 81 99 be
       -0.1795455 -0.13267596 -0.06285518 -0.29981863
0003a0 2e bc ec be 84 5e 0b be a6 99 29 bf 60 a8 13 be
       -0.4623732 -0.13610274 -0.66250074 -0.14419699
0003b0 2b 0c 69 bf 8c 7f 2b bf 44 2e 84 bd 89 99 0b 3e
       -0.9103419 -0.66991496 -0.06454137 0.13632788
0003c0 2d 48 0e bf ea 2b 06 3e a4 a4 f0 be 36 4c e4 be
       -0.5557888 0.1310269 -0.4700061 -0.44589394
0003d0 72 5c f9 bd 4c 84 8f 3e c2 b7 0c 3f c2 60 6b 3e
       -0.12175836 0.28030622 0.5496789 0.22986129
0003e0 0d 21 25 3e cb 87 5c bf 5e e9 40 bf e9 4c 03 bf
       0.16125889 -0.86144704 -0.7535609 -0.5128923
0003f0 8b 98 18 bf ff 0f 57 3e 72 a6 bd bd 87 93 24 3d
       -0.5960776 0.21002196 -0.092602625 0.040179756

linear1.bias f4 [256]
000000 f0 76 04 3f 93 0b 33 be d0 a8 a0 be 1b b0 2a bf
       0.51743984 -0.17484884 -0.31378794 -0.66674966
000010 9d a5 c9 be b6 e4 18 be c5 05 c6 be 4e da 95 be
       -0.39384165 -0.14930996 -0.38676277 -0.29268116
000020 e6 56 46 3e 93 da 1c bf 3d f5 9a 3d bc b8 3d 3e
       0.19369087 -0.6127102 0.07566307 0.18527502
000030 9a b7 75 3b e5 87 8b 3f 5a d5 14 3e 3a fc 45 3e
       0.0037493468 1.0900847 0.14534512 0.19334498
000040 64 36 58 3e 17 1e ac be e6 b4 67 be 85 a3 a4 be
       0.21114498 -0.33616707 -0.22627601 -0.32156006
000050 1e e1 0f bf c3 f3 70 3d 0d 28 8b 3f 3a c7 1f be
       -0.56202877 0.05882622 1.0871598 -0.15603343
000060 95 ef be be 34 2e 32 bc 13 3d 00 bf c6 84 9c be
       -0.37292162 -0.0108752735 -0.5009319 -0.30570048
000070 c2 66 8f bc 5e e6 62 be ac bf 6e 3e 4a 95 80 3d
       -0.017505053 -0.2215819 0.23315305 0.06278475
000080 77 57 aa be 17 c8 25 bf 7c 3c 06 bf fe 6f 55 3d
       -0.33269855 -0.6475844 -0.5243604 0.052108757
000090 0b 57 28 be ac 10 4c be d5 07 1d bd 94 44 8d 3e
       -0.16439454 -0.19928235 -0.038337547 0.27591383
0000a0 90 b4 1a bf 04 4c 14 be e6 09 9f 3e f4 9f c1 3e
       -0.60431767 -0.14482123 0.3106224 0.37817347
0000b0 cf 30 a1 be 41 e7 ba bd 3f 5b 8e be 4f af ad be
       -0.3148255 -0.091261394 -0.2780399 -0.33922812
0000c0 af 9e 88 be 4f 57 be be 58 b3 c8 be fa 69 a8 3e
       -0.26683566 -0.37175986 -0.39199328 0.32893354
0000d0 23 a8 de bc 01 80 6b bf ce 33 53 be e7 1c 7f be
       -0.027179783 -0.91992193 -0.2062523 -0.24913369
0000e0 87 de 2f be 05 d0 78 be 48 71 99 3e 7d 51 aa bc
       -0.17174731 -0.24298103 0.2996924 -0.02079081
0000f0 80 32 39 be 90 b3 dd 3b 1c 09 41 bf e9 b9 57 bf
       -0.1808567 0.0067657903 -0.75404525 -0.8426805
000100 8a 54 10 bd 67 38 c3 3e 7e 31 51 bd d2 66 00 3e
       -0.035236873 0.3812897 -0.05107259 0.12539223
000110 09 80 5e be a9 51 df be a9 e7 0a 3d 9c 35 7d be
       -0.21728529 -0.4361699 0.033912335 -0.24727482
000120 58 16 84 be 7e 81 06 3f 20 33 0b bf bc 69 be be
       -0.25798297 0.5254134 -0.54374886 -0.37190044
000130 ca 70 0c 3d 15 24 f1 be 8e 1d ed be bb 39 dc bd
       0.03428725 -0.4709784 -0.4631161 -0.10753199
000140 b5 29 3a bf d2 cd c3 3d 6d 67 3f be 09 27 c1 be
       -0.7271989 0.095607415 -0.18691798 -0.37725094
000150 06 6c 76 be 10 d3 1c be fc 82 b5 3e 23 57 d5 3e
       -0.24064645 -0.15314889 0.35451496 0.41668043
000160 1f f3 ba be 83 33 6c 3e f0 5a 51 bd e0 ca 4e 3f
       -0.36513612 0.23066525 -0.051112115 0.8077831
000170 20 ca 89 be 63 18 13 bf a1 4d 6c bc 77 93 47 3e
       -0.26912022 -0.57459086 -0.014422805 0.19489847
000180 db 7d 11 bf 41 a0 e8 bc 81 33 cd 3e ff 80 a4 be
       -0.56832665 -0.028396728 0.40078357 -0.32129666
000190 8c 24 d5 be 27 f2 8d 3e da a9 34 bf 03 d8 82 be
       -0.41629446 0.2772381 -0.7057167 -0.2555543
0001a0 2a e1 af be b0 0e 50 3c 33 e9 c6 3e 13 35 2d be
       -0.34351474 0.012698814 0.38849792 -0.16914777
0001b0 3c 64 34 be 35 15 95 3d 8e 0b 9a be c7 58 81 bc
       -0.17616361 0.072794355 -0.3008694 -0.015789403
0001c0 44 57 44 3f b5 33 92 be 53 d7 0e bf 4f cc 0c be
       0.76695657 -0.28555074 -0.5579731 -0.13749813
0001d0 58 0d 91 3d a5 7a 46 be 9d 79 19 bf 7f bd 86 3d
       0.07082623 -0.19382723 -0.5995119 0.06579112
0001e0 83 1e a3 3e 02 64 3b be f7 a9 69 be 2a 51 ca be
       0.31859216 -0.18299869 -0.22818743 -0.39515048
0001f0 a1 90 d9 3e 30 ac 25 bf a1 74 86 be 5b 68 a5 bc
       0.42493156 -0.6471586 -0.26260856 -0.020191362
000200 f3 25 38 be d9 07 8a be 29 d7 be be 50 14 8d 3c
       -0.17983226 -0.26959112 -0.3727353 0.0172216
000210 c7 60 97 3e c7 94 9d be 6f ee 1d be 4a b2 3b 3f
       0.29566023 -0.3077757 -0.15422986 0.7331892
000220 40 cf b8 be ea 18 2f be 93 1c 28 bf 1b c4 1a be
       -0.3609562 -0.17099348 -0.656686 -0.15113871
000230 d7 12 97 be 69 2d 8e be ba ea e5 be 1e 9c 95 be
       -0.2950656 -0.2776902 -0.44905645 -0.2922067
000240 05 43 72 be a2 8a bf be 00 46 37 be f6 11 a2 be
       -0.23658378 -0.37410456 -0.17897797 -0.31654328
000250 79 2f 28 be 0d 34 c6 3d 6b a9 2d 3e ca 8d 54 be
       -0.1642436 0.09677897 0.16959159 -0.20757213
000260 53 75 d0 be d3 c6 3e 3e b0 ca 15 3e 9a a1 88 3d
       -0.4071451 0.18630533 0.146281 0.06671448
000270 35 e2 77 3c f7 1c be 3e 89 b7 e4 be 3c cf 19 3e
       0.015129616 0.37131473 -0.44671276 0.1502046
000280 d7 ec 86 bd 6d 29 9e be 1c 8f 42 3e 71 35 ae be
       -0.06588142 -0.3089098 0.18999904 -0.34025148
000290 d7 c9 d7 be ef 0b 0f bf 72 85 23 3e 22 8d 92 be
       -0.4214618 -0.55877584 0.15968874 -0.286233
0002a0 f0 c4 b8 be 28 17 b2 bd cc 8f 40 be a4 4b 71 be
       -0.3608775 -0.08695823 -0.18804854 -0.23564011
0002b0 e3 e3 a1 be f5 77 7d be 2f f2 c2 be 85 8d bb 3d
       -0.31619176 -0.24752791 -0.38075396 0.09157852
0002c0 60 9c 14 be d0 ac 9c 3e 2e 88 b0 be 36 54 07 3e
       -0.14512777 0.30600595 -0.34478897 0.13215718
0002d0 a0 21 62 bf c8 8b bc be 53 ec 11 be 20 de fb bd
       -0.8833256 -0.36825395 -0.14250307 -0.12298226
0002e0 0e f9 7b be 1a c6 6f 3e fc d9 84 be 02 43 03 3f
       -0.24606726 0.23415413 -0.2594756 0.5127412
0002f0 b2 3c 20 bf ba 83 b0 bd bd 8f 47 bd da e3 a3 be
       -0.62592614 -0.08618875 -0.048721064 -0.32009774
000300 50 02 19 bf 33 ea 34 be 43 b2 a0 be 76 33 97 3d
       -0.59769154 -0.17667465 -0.31386003 0.07382862
000310 92 5c 4d be ab c8 95 bd 7a db 8f be e9 13 ca be
       -0.20054844 -0.07313665 -0.28097135 -0.39468315
000320 ae a1 9f 3e d4 6d b2 bd c6 30 45 be f0 14 c9 bd
       0.3117804 -0.08712354 -0.19256887 -0.09818447
000330 78 bc 96 be 8d 5d f9 bd 07 49 b7 bc 7f 21 0f bf
       -0.29440665 -0.121760465 -0.02237369 -0.55910486
000340 0c 8a 70 be 8c ce 9e be 2b 8e d1 be 1f 83 43 bf
       -0.2349016 -0.31016958 -0.40928778 -0.7637195
000350 75 15 8e be ad 4a f5 3d 35 40 26 3f dd 91 d7 3d
       -0.27750745 0.11977134 0.6494172 0.10525868
000360 35 96 37 bf 10 48 41 3e c3 e1 48 3e b1 6e 46 be
       -0.7171357 0.18875146 0.19617371 -0.19378163
000370 16 25 2a 3e 70 1d 86 be a7 a7 db be fa 6f e0 3d
       0.1661571 -0.26194334 -0.42901346 0.10958858
000380 7f c5 dc be e6 46 46 be ef 3c 71 3e 76 55 ce bd
       -0.43119428 -0.19362983 0.235584 -0.10074894
000390 64 8c 33 bd f6 b9 dd 3e c0 3a a3 be 0b 44 84 be
       -0.04383506 0.4330594 -0.3188076 -0.25833163
0003a0 b5 e9 1d be b4 03 91 bd 80 00 ab be dc 05 90 3e
       -0.15421183 -0.070807844 -0.3339882 0.2812947
0003b0 7e 4d 17 3d 99 a0 e8 be ce 1b cb be f9 a0 a4 be
       0.036939137 -0.45435026 -0.3966965 -0.32154062
0003c0 54 b5 00 bf 42 7f 35 be 4f eb c5 3d a2 fe 6e be
       -0.50276685 -0.17724326 0.09664022 -0.23339322
0003d0 8e 0b 55 bf ce ba 15 bd d6 f0 b8 be 76 d9 3e bf
       -0.83220756 -0.036555104 -0.36121243 -0.7455057
0003e0 8d e8 cb be db 72 d9 be e6 10 5b bb ed 02 b7 be
       -0.3982586 -0.4247044 -0.003342682 -0.3574442
0003f0 ee 2f 39 be 56 29 fd 3c fc 65 8a be ec 1c fb be
       -0.1808469 0.0309035 -0.27030933 -0.49045503

linear2.weight f4 [3, 256]
000000 e3 d3 31 3f 01 fe 93 bd 10 bb c3 3e 3e 70 74 3d
       0.6946394 -0.07226182 0.38228655 0.059677355
000010 73 75 a5 3d 04 8a 24 be 86 44 62 3e f7 d5 1c bd
       0.08079042 -0.16068274 0.22096452 -0.03828999
000020 b5 49 ef bd 2a 05 07 3f 0c 30 7c be 72 61 d3 be
       -0.116839804 0.52742255 -0.24627703 -0.41285282
000030 67 f3 45 3e ff 40 61 3f a2 94 3e bf 9c 25 d6 be
       0.19331132 0.879898 -0.74445546 -0.4182557
000040 d8 eb 0a be 6f e8 20 bd 26 4d fc bd eb b6 52 3f
       -0.1356653 -0.039284166 -0.123194024 0.8231036
000050 01 33 1c 3e b9 03 f5 bd 81 05 0c 3f c8 54 58 bd
       0.15253831 -0.11963601 0.546959 -0.05281523
000060 e5 b6 a3 3e e9 86 40 3e 7f 2f bf be 0e 03 89 bc
       0.31975475 0.18801464 -0.37340924 -0.01672509
000070 85 c3 a5 3c 89 6c b3 bd 4c 75 40 bf a7 e6 59 bf
       0.020234833 -0.08760936 -0.7517898 -0.8511757
000080 32 dd ba 3b 23 9c 94 3e b9 fb 86 3c bf 56 7f be
       0.005702638 0.29025373 0.016477453 -0.24935435
000090 40 99 29 3d f0 72 17 3a 16 f1 1d be e4 12 3a 3f
       0.041405916 0.000577732 -0.15423998 0.72685075
0000a0 2f 62 34 bf 3d aa a8 be c7 f1 48 bf 8c 0b da be
       -0.70462316 -0.32942382 -0.7849392 -0.42586935
0000b0 ed 6e 13 bf a9 5d 08 be 50 9b b6 be 29 a9 37 be
       -0.57591134 -0.13316979 -0.3566537 -0.17935623
0000c0 49 2f e0 3e b5 60 3c 3c b5 d3 ef be 34 b3 10 3f
       0.43786076 0.011497666 -0.46841207 0.5652344
0000d0 92 e5 5f 3a 7f 44 f8 3d 9a 97 d9 bd 24 1f 6e bb
       0.00085409835 0.121224396 -0.10624619 -0.003633448
0000e0 01 6d 1f be dc 3c e0 3b c2 e7 99 be c8 60 54 be
       -0.15568925 0.0068431925 -0.3005963 -0.20740044
0000f0 42 fc 6d bd 40 56 c0 3e 28 0e 4d bf 55 83 63 3c
       -0.0581019 0.37565804 -0.80099726 0.013886292
000100 b1 b9 df bc f8 4a 33 bf 53 40 06 be b8 f3 0e bf
       -0.027310224 -0.7003627 -0.13110475 -0.55840635
000110 b1 a0 29 3d f4 be a4 3e 90 dc 8a be b3 3a ef 3e
       0.041413013 0.32176936 -0.271214 0.4672447
000120 05 5b 70 be e2 6c e2 3e 88 ad f5 bd 57 33 5c 3d
       -0.23472221 0.44223696 -0.11995989 0.0537599
000130 cc c3 e4 be 2e 4e 49 3e c6 a2 d4 3c a8 ef 2b bf
       -0.4468063 0.1965873 0.025956523 -0.6716256
000140 4a e8 ec be bc 9e f1 be 3f fd a4 3d 5e c1 48 bf
       -0.46270972 -0.47191417 0.08056115 -0.78420055
000150 88 01 b6 3b dd 7d 58 bf 3d 8a 45 3f 45 b3 2c 3f
       0.0055543818 -0.8456705 0.7716406 0.67461044
000160 76 a3 0d 3c 99 a4 81 3e 1d 0d 8f 3d 55 85 e4 3e
       0.008644929 0.2532089 0.06984923 0.44632974
000170 b2 fa 32 bb 9d cc 3d 3d 5e 1b 4c bf b7 e6 bb be
       -0.002731007 0.046337713 -0.7972926 -0.3669946
000180 c8 b5 c7 3e 6a 72 bb be 89 47 9b bf a2 36 a8 bf
       0.39005876 -0.36610729 -1.2131206 -1.3141673
000190 f9 e7 cf 3e bc a8 c4 3c 3c 7f 97 be 00 a8 3e 3a
       0.4060667 0.02400624 -0.2958926 0.0007272959
0001a0 b2 ef b3 3c bc 4c ed 3d 59 64 83 be 44 46 9e bd
       0.021964882 0.115869015 -0.25662497 -0.07728246
0001b0 48 75 a4 3e 2e 44 37 bf f8 5e 10 be 23 66 57 be
       0.32120728 -0.7158841 -0.14098728 -0.21035056
0001c0 e5 a7 1e 3f b8 d1 c1 bd 22 31 fb bd 31 3c 45 be
       0.61974937 -0.09463829 -0.12265231 -0.19261242
0001d0 0d f2 55 be 02 9a 2d 3d 65 9f 5f 3d b3 08 c3 be
       -0.20893116 0.0423832 0.05459537 -0.38092574
0001e0 44 b7 b4 be e1 63 92 be 10 71 79 3d d8 f5 21 bc
       -0.3529607 -0.28591827 0.06089884 -0.009885274
0001f0 55 8b 67 bf 99 79 77 3e 12 16 22 3d fc 5c a5 bf
       -0.9044698 0.2416748 0.03957183 -1.2919002
000200 be f0 b5 3c 1d 7c 6c bd e3 d3 22 be e4 e2 dd 3e
       0.022209521 -0.05773555 -0.15901141 0.43337166
000210 de f1 27 bf 83 02 9f bc 83 ea 34 be 50 31 6b 3f
       -0.65603435 -0.019410377 -0.17667584 0.9187212
000220 76 53 f4 3e 30 52 83 3e 18 e8 7a 3f c3 fd bf bc
       0.47719926 0.25648642 0.98010397 -0.023436433
000230 fd 1c 38 bd 34 42 7c be 27 c9 2f 3d 94 4a 3b 3c
       -0.04494952 -0.2463463 0.042916443 0.011431355
000240 7e 46 d6 3c 75 27 48 3c ca 48 f4 be b9 2a 0b 3f
       0.02615666 0.012216439 -0.47711784 0.54362065
000250 ce 7d 9d be 25 72 3b bf f1 6a f2 3e 1e de 10 be
       -0.30760044 -0.73221046 0.47347215 -0.14147231
000260 4c 0e 8b be 9f f6 e8 be cf fa 08 3e 26 61 c4 bd
       -0.27159345 -0.45500657 0.13376926 -0.09588842
000270 87 be f4 bd 7a 49 95 be 14 e2 8a 3e 15 30 00 bf
       -0.11950403 -0.2915762 0.2712561 -0.5007337
000280 8f 38 97 be 51 0b ee 3c 48 06 bd be 18 b6 c2 3e
       -0.29535338 0.02905813 -0.36918855 0.38029552
000290 65 bb 8c 3d da 24 8b 3c 95 ba 62 bd 1d 19 9a 3d
       0.0687168 0.016985346 -0.05535372 0.07524321
0002a0 69 22 41 bd 2d 4a b6 be 55 ab 8f bd 4a 3d d7 3b
       -0.047151957 -0.35603467 -0.07015101 0.0065685855
0002b0 1a 50 17 be a2 6f ab bf 93 ff 41 3d 3f 2b a7 3e
       -0.1477665 -1.3393443 0.047362875 0.32650182
0002c0 74 32 ae bf 33 dd 4f bf ad ae f7 bc 2b f0 26 3f
       -1.3609147 -0.811969 -0.03023466 0.6521022
0002d0 29 e0 9f be c8 cc a0 3e d6 ae 4b bd b6 98 7e 3d
       -0.31225708 0.31406236 -0.049727283 0.062157355
0002e0 3e 32 58 bf 0c 25 e8 be 95 0e bf 3e c1 de b6 bf
       -0.84451663 -0.45340765 0.37315813 -1.4286729
0002f0 4f ae 80 be b0 1a ae bd b9 c8 57 be 04 df 4c 3d
       -0.25132987 -0.08501184 -0.21072663 0.05001737
000300 54 e5 1a be 29 2e 9f be 7c 0d f9 be 18 19 c6 3e
       -0.15126544 -0.31089905 -0.486431 0.3869102
000310 f6 21 68 3a 97 57 c8 be c3 bf d0 bc 6b c5 93 be
       0.0008855158 -0.39129326 -0.025482064 -0.28861555
000320 f5 64 61 3f 3e 2f b7 3c eb 85 51 3d f0 7c ca bd
       0.88044673 0.022361394 0.051153105 -0.09887111
000330 92 47 b7 bd e6 ef 3e bd ad fd 22 3e 39 b7 16 3f
       -0.08949198 -0.046615504 0.15917082 0.58873326
000340 74 64 92 be ec 99 f1 be 56 fb 25 3e d9 07 4c bd
       -0.28592265 -0.47187746 0.16209158 -0.04981217
000350 52 29 42 bd 54 2e 9f be 99 86 3c 3f 57 09 14 be
       -0.047402687 -0.31090033 0.7364288 -0.14456688
000360 35 19 2a 3c 6f 1f 0f bf ff 82 10 bf c3 64 1c 3d
       0.010381986 -0.5590734 -0.56449884 0.03818203
000370 35 78 47 3f f2 85 b1 bd d8 62 3b bd a1 5b 99 be
       0.77917796 -0.08668126 -0.04574856 -0.2995272
000380 c3 09 ce bb 59 9e 76 3c 97 b2 b5 be 42 1b e1 3d
       -0.006287785 0.015052401 -0.35487816 0.10991527
000390 61 a3 31 3f f5 a8 5b 3f 28 8e 1e be 99 42 1a 39
       0.6938992 0.8580468 -0.15483916 0.00014711394
0003a0 df d5 01 3f 2d b5 3e be a6 5f e9 bd 2f 54 8d bf
       0.50716966 -0.186238 -0.113951966 -1.1041316
0003b0 08 a8 8c bd c4 bc 01 3f 7d 36 07 bf 23 65 30 3b
       -0.06867987 0.5067866 -0.5281752 0.002691575
0003c0 46 15 ea bb 2c 2a d1 bd b3 5a 75 bd 63 8f 3e 3e
       -0.0071436493 -0.10213122 -0.05990095 0.18609385
0003d0 5a 98 c2 3e ea 0e 0e 3f b6 47 55 3c e4 09 05 3e
       0.3800686 0.5549151 0.0130175855 0.12992054
0003e0 bf f5 05 3d 1b 31 b8 bf 06 75 33 3f 99 84 6a be
       0.032705065 -1.4389986 0.7010044 -0.22902144
0003f0 01 a3 74 be dc 09 99 be 8f 7e 06 bc 97 aa 9a bd
       -0.23890306 -0.29890335 -0.008208885 -0.07552069

linear2.bias f4 [3]
000000 f7 7b 66 bd 86 84 3a 3e 96 4a e5 bd
       -0.056270566 0.18214616 -0.11195867
