src/model/model.pth (torch, 16799 bytes, 4 tensors)

linear1.weight f4 [256, 11]
000000 7d 8f 42 3e 5e df 5a 3e 9e bd 4a bc d0 fc 0b be
       0.19000049 0.2137427 -0.01237431 -0.13670659
000010 7c 06 f8 bd 3d 62 81 bd 3c e2 df 3c 44 d0 ea 3c
       -0.12110612 -0.063175656 0.027329557 0.028663762
000020 44 60 85 be e9 f4 dd bd 7f cd ff bd cd cb c2 bd
       -0.26050007 -0.108377285 -0.12490367 -0.09511528
000030 26 2e 8c 3e a3 85 ba 3e 53 49 0b 3e ad 57 82 be
       0.27378958 0.36430082 0.1360219 -0.25457516
000040 87 9f 00 3e de 82 62 3e e1 cb 64 be 64 85 66 3d
       0.12560855 0.22120234 -0.22343399 0.056279555
000050 48 07 32 be 51 47 32 3a 91 b3 92 3e 82 b2 8e 3e
       -0.1738559 0.0006800788 0.28652623 0.27870566
000060 21 8b 38 3e 74 c5 77 be 97 7e e2 be 34 0a 8b 3e
       0.18021823 -0.24196416 -0.44237205 0.27156222
000070 71 b9 8c 3e fa 56 3d 3d 26 15 e6 be 79 c2 09 bf
       0.2748523 0.046225525 -0.4493801 -0.53812367
000080 8e c1 a3 bd 78 50 5d 3f bb 20 b1 3d 03 ed 22 3e
       -0.07995902 0.8645091 0.08648821 0.15910725
000090 a3 63 8e be 42 b0 9e 3e 95 d1 f2 be 4b 36 30 3e
       -0.27810392 0.3099385 -0.47425523 0.17208211
0000a0 17 1a 06 bd 1a d1 2b be 44 dc c5 bc 2c ce 12 bf
       -0.032739725 -0.16778985 -0.024152882 -0.57345843
0000b0 fc 85 93 3d 96 e3 f7 bd 94 58 d1 3d 2f 3d b5 bd
       0.0720329 -0.121039554 0.10221973 -0.088495605
0000c0 bf f7 44 be db 0f 5e be 7f 24 95 3d e9 62 3a 3e
       -0.19235133 -0.21685736 0.07282352 0.18201794
0000d0 43 fe 03 3e 76 76 b7 3c 8a 12 18 3d 43 a9 a2 3e
       0.12889962 0.022395354 0.037127055 0.3176976
0000e0 90 b2 99 3e ea c5 a1 be 59 87 03 be d2 dd 8f be
       0.30019045 -0.3159631 -0.128446 -0.28098923
0000f0 00 51 91 bd f1 ba 27 be 2e 58 6f 3d c7 69 93 bd
       -0.07095528 -0.16379906 0.058433704 -0.0719791
000100 c9 29 a8 bd 4e d7 9a bd 0e 93 1d 3d c7 bf 02 be
       -0.08211095 -0.07560597 0.03847032 -0.1276847
000110 30 2e 19 3e 52 de 68 3b 38 69 2b be 65 69 ca be
       0.14959025 0.0035532904 -0.16739357 -0.39533535
000120 7f 3d b1 3d a0 d5 22 bf c0 3d 83 3d 38 a4 94 3e
       0.086543076 -0.63607216 0.06408262 0.2903154
000130 0c 27 90 3e 85 a3 68 be 26 fe f6 bd e6 9f 70 be
       0.2815479 -0.22718628 -0.12060194 -0.23498496
000140 6d 0a 0a 3e 75 71 0d be c5 b6 22 be ce 65 1e 3c
       0.1348054 -0.13812812 -0.15890034 0.009667827
000150 64 a1 15 bf dc 9e 0f be 31 9f 0e bf 5c 42 11 bf
       -0.5844939 -0.14025444 -0.55711657 -0.5674188
000160 df 99 fc 3b 58 05 e2 3d 3b a7 9a 3e d6 6c 0b bc
       0.0077087726 0.110361755 0.30205712 -0.008509835
000170 97 5e 94 be 72 38 ad be c8 09 87 be e7 ca 0c bf
       -0.28978416 -0.33832127 -0.2637465 -0.54997104
000180 86 d2 f3 3d de e3 13 3e ec 89 c7 3d e8 59 38 be
       0.119053885 0.14442393 0.097431034 -0.18003047
000190 ca 49 20 3d 15 25 a8 be d4 e7 e4 3e 31 a1 67 be
       0.03913287 -0.3284079 0.4470812 -0.22620083
0001a0 66 51 c3 3d 4e 2b 93 be 72 03 71 3d 1d e9 cd be
       0.0953701 -0.28743976 0.058841176 -0.40216914
0001b0 3d 7b b0 be af ac ec be e9 0e da bd 01 e8 de 3e
       -0.34469023 -0.46225497 -0.10647375 0.4353638
0001c0 f2 23 6c be c1 18 c8 be 11 48 86 3d f4 3b 0d be
       -0.23060587 -0.39081386 0.06556714 -0.13792402
0001d0 89 66 95 be 1b f8 91 3d 58 7f c9 3d c2 7c 7b 3b
       -0.2917979 0.071274005 0.09838742 0.0038373922
0001e0 87 e8 46 be 85 06 42 3e 99 11 07 3e 83 15 e4 bd
       -0.1942464 0.189478 0.13190307 -0.111369155
0001f0 d7 41 98 be 80 ac ae bd dd 8a 6a bd 7d db ad be
       -0.29737732 -0.085289955 -0.057261337 -0.3395652
000200 b0 4f 55 bd b5 ab 73 3e 56 83 29 3e 41 d8 25 3e
       -0.05207795 0.2379597 0.16554007 0.16195776
000210 90 e5 11 3d 31 7f a9 bd 25 cc fb 3d 35 a2 b8 bd
       0.03561932 -0.08276213 0.12294797 -0.090153135
000220 3e 10 f9 be 76 32 d3 be 4a 1f 07 bf ee bd de be
       -0.48645204 -0.41249436 -0.5278212 -0.4350428
000230 a0 e5 a6 3a d8 5b a1 3e a0 b0 16 be 9a fe 6d 3e
       0.0012733229 0.31515384 -0.14715815 0.23241654
000240 f0 ff da bc 34 70 2b be 37 b8 4a 3d 93 24 2a be
       -0.026733369 -0.16742021 0.049492087 -0.16615514
000250 a5 00 6c 3e 5a 12 28 3e 2a ec c8 3d 04 d2 70 be
       0.23047121 0.1641325 0.0981067 -0.23517615
000260 16 72 fa 3d d8 51 ae 3d cd ea 84 bd d4 80 60 3a
       0.122287914 0.08511704 -0.06490097 0.0008564119
000270 b3 46 a4 3e 8b 09 b9 3d da 8b 38 be 65 13 71 be
       0.3208519 0.09035023 -0.18022099 -0.23542555
000280 79 dd 4d be d5 c9 bf 3e 78 40 87 be 56 bc de be
       -0.20104016 0.37458673 -0.26416373 -0.43503064
000290 5d 61 d9 be 54 01 e1 3e 38 b6 27 3d 0f 46 84 be
       -0.42457095 0.43946326 0.04094526 -0.258347
0002a0 1d b1 90 bd 28 7c 3c 3e 05 a4 ed 3b b9 1e 9d be
       -0.07065032 0.18406737 0.0072522187 -0.30687502
0002b0 e4 79 7a 3e 4b 66 5e be e7 65 84 be a2 46 19 3e
       0.2446056 -0.21718709 -0.25858995 0.1496835
0002c0 d1 e8 09 bf 63 f1 82 bd 61 83 1b bf fd 0a 33 be
       -0.53870875 -0.06393697 -0.60747343 -0.1748466
0002d0 bf d9 d4 be e8 20 de be 9a 92 2a bf a2 45 ce 3e
       -0.41572377 -0.4338448 -0.66629946 0.402875
0002e0 a7 d4 48 bd ca c3 d8 bd 80 aa d7 3d 2d 14 96 3e
       -0.049030926 -0.10584219 0.10530567 0.29312268
0002f0 a7 70 37 3d b9 cc 55 bd 09 77 5a be 7a fa f3 bd
       0.044785168 -0.052197192 -0.21334471 -0.11913009
000300 3d bd 83 be cd fe e0 bd 87 65 bc 3d d3 04 b8 bd
       -0.25730315 -0.109860994 0.09199052 -0.08985295
000310 d2 a0 3e 3d 92 c4 1a 3e e0 16 1b be c1 8a 27 be
       0.04654009 0.15114048 -0.15145445 -0.16361524
000320 26 65 0c be f8 ff 9c 3a 6d 21 80 3e e2 cc e3 3d
       -0.1371046 0.001197814 0.25025502 0.11123063
000330 0f ec 38 3e 76 fc 19 bd a5 fe 22 3e 63 b0 f0 bc
       0.18058799 -0.03759428 0.15917452 -0.029380983
000340 65 1d 01 bd a2 75 03 3d 1c d3 74 3d f2 9e 27 3e
       -0.031522173 0.032094605 0.059771642 0.16369227
000350 4d 50 24 be a3 a6 eb bc 42 5c 93 be f4 9b 28 3d
       -0.16046257 -0.028765982 -0.28781325 0.041164353
000360 3a 04 a0 be 94 77 63 be b3 e3 5b be 3e b1 87 3d
       -0.31253225 -0.22213584 -0.21473579 0.06625603
000370 c4 98 3b be f2 d6 dc 3e bc 71 01 be 68 26 b0 be
       -0.18319994 0.4313274 -0.12641042 -0.34404302
000380 36 9f 2a 3d eb 95 e5 bd 76 bf 88 be 5b 3a 5c 3e
       0.04165574 -0.11210235 -0.26708573 0.21506636
000390 7b 3c b0 3e cd 6a ee bd a6 6d de 3c 93 ea 52 3d
       0.34421143 -0.116414644 0.027151894 0.05149324
0003a0 6f d7 b8 3d 89 48 76 3e 8e 42 f7 bc 0e 7e 21 be
       0.09025466 0.24051107 -0.030183103 -0.15770742
0003b0 27 38 a6 3e 96 f3 be 3d bb 96 f9 3d bf d1 a0 bd
       0.32464716 0.09323804 0.12186953 -0.07852506
0003c0 ba 12 0a bf b2 56 db be c9 19 df bd 9e bf 57 3c
       -0.53934824 -0.4283958 -0.1089359 0.013168244
0003d0 24 15 52 be 0e b5 4c 3e 55 1f b3 3c cc 63 eb 3e
       -0.20515877 0.19990942 0.021865526 0.45974576
0003e0 94 6a 99 3e 70 61 0c 3e 54 5e 8c bd 39 c6 30 3e
       0.29964125 0.13709044 -0.06853929 0.17263116
0003f0 f0 9f c3 3c a6 58 23 3e ee b1 91 be 6b 58 30 3e
       0.023879975 0.15951785 -0.28456062 0.17221229

linear1.bias f4 [256]
000000 b4 e6 a4 bd aa e5 88 be 30 c7 20 bc b3 1c d4 3d
       -0.08051816 -0.2673772 -0.009813115 0.103570364
000010 09 d2 63 3e 1e 18 b1 3e e2 8a e1 bd fc 39 1a 3e
       0.22248091 0.34588712 -0.11012818 0.15061182
000020 3e 5d f5 bd 1a 75 0f 3e 5b 94 a0 3c b7 cf a9 3e
       -0.11980675 0.14009514 0.019601991 0.33166286
000030 56 6c 30 bd 10 23 ec be e5 aa 88 be f2 50 07 3d
       -0.043072067 -0.461205 -0.26692882 0.03303618
000040 af a2 e9 3e 59 89 c7 3d 2a 7c b3 be 84 90 54 be
       0.4563193 0.09742994 -0.35055667 -0.20758253
000050 67 06 de 3d f9 55 05 be 5c d5 a3 be 2e 56 73 3d
       0.10841065 -0.13021077 -0.31998718 0.05940836
000060 ac 5a f2 3d a4 bc d1 be d8 0e 91 bc e3 e2 c2 3e
       0.118337005 -0.40964234 -0.017707273 0.38063726
000070 68 7a 17 be 25 9f 11 bd 55 e2 d6 3e 4f 16 65 be
       -0.14792788 -0.035552163 0.41969553 -0.22371791
000080 53 c6 73 3e 3c 7a 5a 3e 1d 02 c7 be 83 4d 98 be
       0.23806123 0.21335691 -0.388688 -0.29746637
000090 61 e7 d3 3d 15 96 4e 3e f2 1a 06 bc 48 48 24 3d
       0.103468664 0.20174439 -0.008185135 0.040107995
0000a0 a6 6b 88 bd c5 9a a1 be a2 6d bc 3d 37 66 42 3e
       -0.06661157 -0.31563392 0.09200598 0.18984304
0000b0 da bf 8b 3c b8 47 5c bb 63 a9 ea bc d4 e8 c5 3e
       0.017059255 -0.0033612084 -0.028645223 0.38654196
0000c0 81 27 90 be db b4 39 be 05 ad 84 3e 00 77 ba 3e
       -0.2815514 -0.18135397 0.25913253 0.36418915
0000d0 0b cd 80 3d 89 44 d8 bd d0 1f d8 be 7e 89 e8 3d
       0.06289109 -0.10559947 -0.4221177 0.113543496
0000e0 b7 81 6a bd 4e d0 97 be f0 a2 08 3e 9f 4b 94 3e
       -0.057252612 -0.2965111 0.13343406 0.28963944
0000f0 e3 3b 84 be fa 81 9b bd 5c 2f d8 3c 11 41 79 3e
       -0.2582694 -0.075931504 0.02638977 0.24341227
000100 5f 86 74 be 94 36 a1 3d 11 6f ad be 66 9b 68 3e
       -0.23879384 0.07871738 -0.338738 0.2271553
000110 39 cd ee be cf 8a 50 be e4 43 b1 3e ab 89 95 3e
       -0.46640947 -0.20365451 0.3462211 0.29206595
000120 63 40 93 3e 15 6e f3 be c5 b3 a4 be b1 ad 1e be
       0.2876006 -0.47544923 -0.32168403 -0.15495946
000130 a7 87 a9 3e 3a 42 08 3d 39 0f 82 bd 4c 57 c5 3e
       0.33111307 0.033266284 -0.0635056 0.38543165
000140 47 c4 60 3e c1 d2 19 be 4f fb 1e be b8 05 9f be
       0.21949874 -0.15021802 -0.15525554 -0.3105905
000150 39 64 97 bc 21 11 c6 bd c4 23 07 bd 13 0f b1 3e
       -0.018480407 -0.09671236 -0.032993093 0.34581813
000160 bb cb b0 3e 0d 20 b3 3d 99 b2 4e bd c3 fe a8 3e
       0.34530434 0.087463476 -0.050463293 0.33006868
000170 91 9b 96 be f5 0c 59 3d a8 fa 81 be 2b 0b ae be
       -0.29415563 0.052990872 -0.25386548 -0.33992895
000180 53 fa 43 3e 5d 29 39 3d e7 3b 50 3c c5 97 21 be
       0.1913846 0.045205463 0.012709594 -0.15780552
000190 83 5e 6c 3e 0a e0 72 3e 89 89 00 3e f0 05 08 3e
       0.23082928 0.23718277 0.12552465 0.13283515
0001a0 10 40 95 bd 6b 19 5f 3d 5d 04 82 bc 28 04 c2 3d
       -0.072876096 0.0544676 -0.015871221 0.09473449
0001b0 4d 18 ab 3e 7d 33 07 3e 64 41 0e bd 5c 46 67 be
       0.33416978 0.13203235 -0.03473033 -0.22585434
0001c0 63 32 ba 3e 00 e2 1e bd b1 fb a5 3e c7 25 94 be
       0.36366567 -0.03878975 0.32418588 -0.28935072
0001d0 37 94 59 3e 03 35 58 3e 56 7b 8c be 99 e5 d9 be
       0.21247946 0.21113972 -0.27437848 -0.42557982
0001e0 e8 f1 07 3f 21 83 4d 3e e0 c6 5e 3e 02 66 7b 3e
       0.53103495 0.20069553 0.21755552 0.24550632
0001f0 1e 74 70 3e 3e bc ea bd af 76 87 bd 08 ff 18 3d
       0.23481795 -0.114616856 -0.06614434 0.03735259
000200 d6 e7 b4 3c bd 2f 91 3d 44 af 54 be f3 2b 2e 3e
       0.022083204 0.070891835 -0.20769984 0.17008953
000210 65 36 b8 3d 96 a1 a5 3e e4 b4 14 be 9b 88 45 3e
       0.0899475 0.32349843 -0.1452213 0.19290392
000220 03 05 e4 3e d9 6a d5 3c e3 79 9e bd 4e 77 c0 bd
       0.44535074 0.026051925 -0.07738092 -0.093977556
000230 b6 cb c7 3e c1 b0 1d 3e 70 b6 f6 3d 20 a1 8c 3e
       0.39022607 0.15399458 0.12046516 0.2746668
000240 a6 39 ab 3d cc f3 a5 3e d8 52 ff 3d 72 e2 9b 3e
       0.08360605 0.32412565 0.12466973 0.30446202
000250 05 25 52 be 1e 27 8a 3e 2a 85 5b be b8 24 00 3e
       -0.20521934 0.2698297 -0.21437517 0.12514007
000260 ad dc ba 3c 7c b3 c4 3e 77 3f d3 be d7 0e 26 bd
       0.022810305 0.38418186 -0.41259357 -0.040541496
000270 70 10 d2 3d d7 d0 9a 3e 29 97 2c 3e 50 3d d5 be
       0.102570415 0.30237457 0.16854538 -0.4164834
000280 7a b7 9e be 22 b1 5b 3e 22 53 e9 3e 1e b2 f2 bd
       -0.30999357 0.2145429 0.45571238 -0.118503794
000290 86 10 29 be ff b4 87 3e 8b 4d c0 3e 33 b6 9e 3d
       -0.1651021 0.26505277 0.3755916 0.077495955
0002a0 3c aa e6 3b fb 9e 2b be 85 55 51 3c 93 1e a9 3d
       0.0070393365 -0.16759865 0.012776737 0.08257785
0002b0 45 62 9a be de 18 39 3e e4 4a af be 2a 17 b8 bd
       -0.301531 0.18075892 -0.34236825 -0.08988793
0002c0 cf 38 99 be ae 57 26 bd 35 7e 87 3e ee a3 95 3d
       -0.29926154 -0.04061096 0.26463476 0.07306658
0002d0 40 41 c0 be c3 3c dd bc 7f b0 39 3d 09 40 cd 3d
       -0.37549782 -0.027006513 0.045334335 0.10021979
0002e0 2c 40 b5 3e 93 d5 89 3e ac ef fb bd 54 7f 03 3e
       0.35400522 0.26920757 -0.12301573 0.1284154
0002f0 0e 73 49 be 56 10 1f be c5 8c 97 3c fb 6c b2 3e
       -0.19672796 -0.15533575 0.018499741 0.3484877
000300 60 ae 6e be 4b 9e 8e 3e ce 7b 86 be 5d 2a 95 be
       -0.23308706 0.27855143 -0.2626633 -0.29133883
000310 51 b3 34 3e 36 84 ac 3e 07 33 65 3e 51 99 28 3e
       0.17646529 0.3369462 0.22382747 0.16464736
000320 04 b4 d1 bd 2d 72 95 bd af 9a c5 3e 6b 62 68 bd
       -0.102394134 -0.07297168 0.38594577 -0.056734484
000330 5e e1 76 bd 3b b8 6e bc 20 7b 27 be 03 62 cf 3e
       -0.06027352 -0.014570291 -0.16355562 0.40504465
000340 3c a5 25 be 1e d3 c3 3d 63 12 3a be eb 89 4b bd
       -0.16176313 0.09561752 -0.18171076 -0.049692076
000350 40 61 7d 3e 49 4e 07 bd 2a 58 eb 3d 52 d1 20 be
       0.24744129 -0.033033643 0.11491425 -0.1570485
000360 49 9e 46 be af 1c 72 3e 20 2b b6 be 19 7c 02 be
       -0.19396318 0.23643754 -0.35579777 -0.12742652
000370 94 8f d9 3e 27 0b 02 be d9 95 ef 3d 90 7d 0a be
       0.42492354 -0.12699567 0.11698503 -0.13524461
000380 91 8c ae 3e 56 78 2c 3e 71 66 7c 3e 97 02 5a 3e
       0.3409162 0.1684278 0.24648453 0.2129005
000390 bf ab 57 3e c2 cd 83 be 88 ab 89 3e b1 11 8c be
       0.2106161 -0.25742918 0.2688868 -0.27357247
0003a0 21 a9 5c be 1b 25 3f be 36 27 9d 3d 55 02 2a 3e
       -0.21548893 -0.18666498 0.076734945 0.16602452
0003b0 f2 b7 f9 3d 08 7b 4e be cb 81 32 be 54 38 8b be
       0.12193288 -0.2016412 -0.17432325 -0.27191412
0003c0 91 c8 63 be 0f 0c 02 3e 90 fc 86 3e 31 25 95 3e
       -0.22244479 0.12699912 0.26364565 0.29129937
0003d0 f0 ef 9f be 2b 7d 97 3e 8e 58 be 3d 63 df ae 3e
       -0.31237745 0.29587683 0.09294234 0.34154806
0003e0 f3 22 69 bd bd 1a 17 be e0 90 ab bd 3e b6 20 3d
       -0.056918096 -0.14756294 -0.08377242 0.0392363
0003f0 4a 85 13 bc dd 08 10 3e 30 f1 9a 3c 7c cd 66 3d
       -0.009003947 0.14065881 0.018913835 0.05634831

linear2.weight f4 [3, 256]
000000 87 ef f1 bc 26 da b6 bd 34 6b e5 3d d5 cc ce be
       -0.02953316 -0.08928327 0.11202088 -0.4039065
000010 a8 27 23 be cf 75 3f be dc a3 0d be 93 69 89 be
       -0.15933096 -0.18697284 -0.13832039 -0.2683836
000020 90 09 9e bd 94 54 25 be b7 0b 65 bc 64 e5 19 be
       -0.07716668 -0.16145545 -0.013979844 -0.15028912
000030 70 8b 67 be cb c3 08 3e ee be e9 bd 17 10 d1 bd
       -0.22611785 0.13355939 -0.1141337 -0.10208147
000040 19 6e 8d be b9 8c d1 bd 99 82 3a 3d 3f 4a 03 bd
       -0.2762306 -0.10231919 0.045534704 -0.03205323
000050 f7 55 9c bd 18 1a 2c be 3a 44 44 3e 3f 4c f4 bd
       -0.07633584 -0.16806829 0.19166651 -0.11928605
000060 86 48 06 be 41 8a 97 3d 3d 52 54 bd a7 c5 64 be
       -0.13113603 0.07399417 -0.05183624 -0.22341023
000070 32 11 29 bc fb 1f 7d be fd 1e 69 be 9f 66 e3 bc
       -0.010319041 -0.24719231 -0.22765727 -0.027758894
000080 a3 8f 36 be 5b b5 3e be 42 17 d8 bd 02 6b 87 3e
       -0.1782823 -0.18623869 -0.10551311 0.26448828
000090 55 6e ef bd 38 9c 2a bd a8 f1 84 bd be 5c 24 bd
       -0.11690966 -0.041652888 -0.06491405 -0.04012751
0000a0 a7 2d 63 bd 33 ce a6 3e 81 03 d3 bd dc e9 3b be
       -0.05546346 0.32579193 -0.10303403 -0.18350929
0000b0 92 97 2c be f1 72 c1 bd c3 52 29 bd 53 5c 57 be
       -0.16854694 -0.094457515 -0.041338693 -0.21031313
0000c0 b2 3e 78 3e 76 78 97 3d 46 75 0b be 3d 9e 51 be
       0.24242666 0.07396023 -0.13618955 -0.2047052
0000d0 41 0a f1 bd cd f3 cf bc 3a c8 00 3e f9 1a 58 bd
       -0.11769534 -0.025384808 0.1257638 -0.052760098
0000e0 6d 8d 93 be 0c c2 06 3d e6 a6 a8 bd 09 d8 4e be
       -0.28818837 0.0328999 -0.08234958 -0.20199598
0000f0 77 c7 58 3e f0 7d 78 3d 63 a9 61 bd 0f a1 3e be
       0.2116984 0.06066698 -0.05509318 -0.18616126
000100 d2 40 e8 3c 98 65 a1 bd c3 4b 15 be e6 43 10 be
       0.028351221 -0.078807056 -0.14579682 -0.14088401
000110 5b 3f 53 bd f2 2a a7 3d 76 7d 5b be 8e 4a 7f be
       -0.051574092 0.08162488 -0.21434578 -0.24930784
000120 90 9d 5f be 4e 90 12 3d fb 69 c0 3c ed f3 f3 bc
       -0.21837449 0.03578215 0.023488035 -0.029779399
000130 3a 88 87 be d3 68 48 be 30 00 b6 be 3d 0d 2e be
       -0.2647112 -0.19571237 -0.35547018 -0.16997238
000140 e2 50 5c be 29 73 19 be 9e 19 24 bd fa cc 97 3d
       -0.2151523 -0.14985336 -0.040063493 0.07412143
000150 07 b9 3a be 9d 52 6c 3e 77 0f 0b be 2b ca 81 be
       -0.18234645 0.2307839 -0.13580118 -0.25349554
000160 f7 e1 e3 be c1 a3 38 be 56 f4 e5 bd 85 ae 0d be
       -0.44508335 -0.18031217 -0.11228244 -0.13836105
000170 1c c7 09 bd 2a aa 72 bd 2f 86 08 3c ff 82 f9 be
       -0.03363715 -0.059244312 0.008332773 -0.48732755
000180 e5 f7 35 be a3 16 67 be 43 92 19 be c5 ec 42 be
       -0.17770346 -0.22567229 -0.149972 -0.19035633
000190 3b 1a 1b be bb 7a 84 be 5e df 02 be b7 d9 0c be
       -0.15146725 -0.25874886 -0.1278052 -0.13754927
0001a0 2f 82 06 3f bb ba d2 be b6 fc 97 be 48 fe 63 be
       0.52542394 -0.4115809 -0.2968499 -0.2226497
0001b0 4e d4 07 be 6f c8 ec bd be cc 28 be 34 de dd bc
       -0.13264582 -0.11561667 -0.16484353 -0.027083494
0001c0 6c b5 5a be 5d ff 93 3d 21 7e 0a bf 55 cf 89 be
       -0.2135827 0.07226441 -0.5409871 -0.26915994
0001d0 58 65 f2 be bc e4 83 be 8b b1 8d be c6 93 c4 bd
       -0.47342944 -0.25760448 -0.27674517 -0.09598498
0001e0 9a b1 4b bf 0f ae 84 be 14 c5 8b be 03 da e3 bd
       -0.79567873 -0.25914046 -0.27298796 -0.11125567
0001f0 9d d6 56 be cc 70 d9 bd 03 f0 08 bc d4 f5 3e be
       -0.20980306 -0.106172174 -0.0083580045 -0.18648463
000200 bf 7f 35 be 48 fa 6f bd ca f9 bd bc 85 b2 1c 3c
       -0.17724513 -0.058588296 -0.023190398 0.009564047
000210 94 b4 5e bd 61 ae f4 be c8 7a d5 3d 1f 79 ca be
       -0.05437143 -0.4778929 0.10423809 -0.39545533
000220 84 90 8b be d5 51 89 bd 5a 15 9e 3d e9 c4 02 3e
       -0.27258694 -0.06705061 0.07718916 0.12770428
000230 27 20 59 be fa 3b a7 be cf 90 24 be 43 0f 16 be
       -0.21203671 -0.32662946 -0.16070865 -0.1465426
000240 0b 2b f7 bd 1d bf 30 be 5c 8d dd bd fe e9 46 be
       -0.12068757 -0.17260404 -0.10817978 -0.19425198
000250 87 85 8c be 32 af 19 be d9 11 cf 3d 8c 12 b1 be
       -0.27445623 -0.15008238 0.10110826 -0.34584463
000260 ce 2d cf bd a6 f7 71 3d db 04 d6 bd 9e 93 b9 be
       -0.101161584 0.059074067 -0.10450145 -0.36245435
000270 64 47 6f be 29 84 14 be ef 2f fd bd e1 ac ee 3c
       -0.23367077 -0.1450354 -0.12362658 0.02913517
000280 87 df c4 bc 2b 25 4e be 3c f8 7f be 6c 75 99 be
       -0.024032367 -0.20131366 -0.24997038 -0.29972398
000290 b0 37 7c 3c 71 7a 87 be a9 ee b3 be c7 a4 a1 be
       0.015394136 -0.26460603 -0.3514302 -0.31571028
0002a0 83 ae 80 bd b3 ef 7d 3c 05 c2 d6 bd 66 fb c6 bd
       -0.062832855 0.015499043 -0.10486225 -0.09715919
0002b0 dd 82 4d 3c d0 b0 d2 be e1 ab fc be 7a 94 39 bb
       0.012543407 -0.41150522 -0.49349883 -0.0028317259
0002c0 33 dc 97 bd d4 ec a9 3e 42 8c 14 be 98 21 6d be
       -0.074150465 0.33188498 -0.14506629 -0.23157346
0002d0 fb 15 c0 3e 74 1c f9 bc 1a 89 01 be 54 e8 67 be
       0.3751677 -0.030409075 -0.12649956 -0.2264722
0002e0 9e a3 b1 be c0 c5 b9 be 58 60 0c 3f 24 69 f0 bd
       -0.34695143 -0.36283684 0.5483451 -0.11738804
0002f0 c2 bb dd bc 30 a7 3c ba 9a b2 a6 bd e0 fe 46 be
       -0.027067069 -0.0007196544 -0.08139534 -0.19433165
000300 f3 b0 9b 3e 49 05 90 be 82 d1 55 bc 90 6f d9 bb
       0.3040844 -0.28129032 -0.013050439 -0.0066356137
000310 30 f7 e3 bd 94 5f 44 be ac e9 2e be 4e 38 2b be
       -0.11131132 -0.19177085 -0.17081326 -0.16720697
000320 7a 52 91 3d c9 85 47 be 75 5d 74 be 5c 22 96 bc
       0.07095809 -0.19484629 -0.23863776 -0.01832693
000330 20 26 10 be b9 ce e6 3d 09 a7 8c bd 79 f6 89 be
       -0.14077044 0.11269898 -0.06867797 -0.26945856
000340 14 62 d0 3b 1a 5c 33 be ad 42 2f be f4 97 fb bd
       0.006359348 -0.17515603 -0.17115279 -0.12284842
000350 79 dd 87 bd 51 e2 d4 bc aa 98 f6 bd b1 08 28 be
       -0.066340394 -0.025986822 -0.12040837 -0.16409566
000360 3c 1f e7 bd ca a9 04 be 6a 37 c2 bb a1 73 f1 3d
       -0.11285254 -0.12955394 -0.005927016 0.117896326
000370 b6 42 8f be d5 e0 13 3d 48 99 e2 bd de e7 29 bd
       -0.27980584 0.03610309 -0.11064392 -0.04148089
000380 0a 7e 84 be b9 de 68 be bc 3d 91 be 21 c7 1f be
       -0.2587741 -0.22741212 -0.28367412 -0.15603305
000390 f6 72 4c be 13 75 da be 01 02 cd be 1e 29 3c bd
       -0.19965729 -0.42667446 -0.4004059 -0.04593765
0003a0 83 7e 05 3d 4c 62 56 bd 0b b4 08 be 8b 2f 00 be
       0.032591354 -0.052339837 -0.13349931 -0.12518136
0003b0 6d ab bd bd 13 34 f2 bc bd 54 e6 bd da b4 24 3d
       -0.092612125 -0.029565847 -0.11246631 0.040211536
0003c0 8b 8f 6d 3d 36 e3 4a be 90 3d 07 be 77 fe 31 be
       0.05799822 -0.19813237 -0.13207078 -0.17382227
0003d0 3a 34 58 3e d2 8c 66 be fa ee d3 bd b6 e8 d9 be
       0.21113673 -0.22514656 -0.103483155 -0.42560357
0003e0 3f 73 c9 3d 36 4d 6f be 25 b5 c6 be b4 00 ea 3d
       0.098364346 -0.23369297 -0.38810077 0.11425915
0003f0 b4 1a 1d be 09 43 88 be f4 1f 35 3d b2 46 98 3e
       -0.15342218 -0.26613644 0.044219926 0.29741436

linear2.bias f4 [3]
000000 10 08 50 be 7f b0 81 be 3b 2c 98 bd
       -0.20315576 -0.25329968 -0.07430311
