src/model/model.pth (torch_old, 16189 bytes, 4 tensors)

linear1.weight f4 [256, 11]
0	0x3eb8c4a9	0.3608754
1	0x3e17bfab	0.1481921
2	0xbe9b5ce7	-0.30344316
3	0xbe8bcbf8	-0.27304053
4	0xbcbd4820	-0.023105681
5	0x3e9daa36	0.30793923
6	0x3e709370	0.23493743
7	0xbf011cb3	-0.50434417
8	0x3b00b68a	0.0019640052
9	0xbee69adf	-0.45040032
10	0xbe406383	-0.1878796
11	0x3ea464cd	0.32108155
12	0x3eea15d6	0.45719784
13	0xbf092da7	-0.53585285
14	0xbea492f1	-0.32143357
15	0xbe625816	-0.22103915
16	0xbf0ec829	-0.5577417
17	0xbf05f832	-0.5233184
18	0x3e615cda	0.22008076
19	0x3e086791	0.13320757
20	0x3df2bc07	0.118522696
21	0xbe174146	-0.14770994
22	0x3dc5adee	0.09652315
23	0x3d432a87	0.04764798
24	0x3cdab973	0.026699757
25	0xbdd540cd	-0.104127504
26	0xbf15da5c	-0.58536315
27	0xbe14b444	-0.14521891
28	0xbe644457	-0.22291695
29	0xbe9db471	-0.30801728
30	0x3eb5d549	0.35514286
31	0xbf06da29	-0.52676636
32	0xbef919bc	-0.48652446
33	0xbec5586e	-0.3854403
34	0xbf1a5720	-0.6028919
35	0x3ec11567	0.3771164
36	0xbee66dcc	-0.45005643
37	0xbf326652	-0.6968738
38	0xbe6e78ad	-0.23288222
39	0xbf123998	-0.5711913
40	0x3e994ee9	0.29943016
41	0x3e77bbd5	0.24192746
42	0x3dc18479	0.09449095
43	0x3dfa4c05	0.12221531
44	0xbe2db17f	-0.1696224
45	0xbf11fdd2	-0.57027924
46	0x3e30b44e	0.17256281
47	0xbf04ab99	-0.5182434
48	0xbf188ec7	-0.5959286
49	0xbe4bf76a	-0.199186
50	0xbec7c62b	-0.39018378
51	0x3ea27c05	0.31735244
52	0x3e9088c5	0.28229347
53	0xbe64cbe7	-0.22343408
54	0x3a90815a	0.0011024878
55	0xbec4c2d8	-0.38429904
56	0xbe523023	-0.20526175
57	0xbf13a024	-0.5766623
58	0xbdfc8065	-0.12329177
59	0xbe3f5454	-0.18684512
60	0x3ede4c33	0.4341751
61	0xbe39b9ad	-0.18137236
62	0xbf323ed1	-0.696271
63	0xbeac44a1	-0.3364611
64	0xbf0a3fae	-0.5400342
65	0xbf0c8f8a	-0.54906523
66	0x3e96cb35	0.2945191
67	0xbe61949f	-0.2202935
68	0xbd68e463	-0.05685843
69	0x3c49cb0e	0.012316478
70	0xbe23c897	-0.15994488
71	0x3d961e6e	0.07330023
72	0xbf1ddb91	-0.61663157
73	0xbf2f922c	-0.68582416
74	0x3d0017e5	0.031272788
75	0x3ebaa36a	0.364528
76	0x3e8e6d08	0.2781756
77	0x3e0de9e4	0.13858753
78	0xbe399cd8	-0.18126237
79	0xbe34bd71	-0.17650391
80	0x3dedee04	0.116176635
81	0x3e054856	0.13015875
82	0x3cbad9f0	0.022808999
83	0xbb528880	-0.0032124817
84	0xbe6d8e05	-0.23198707
85	0xbe762961	-0.24039222
86	0xbe07e021	-0.13269092
87	0xbde7e7f2	-0.11323537
88	0x3e8b07a8	0.2715428
89	0x3e593473	0.21211414
90	0x3d88f3a4	0.06687096
91	0xbc94648a	-0.018114347
92	0x3e0f7adf	0.14011715
93	0xbd967db0	-0.07348192
94	0x3e966480	0.2937355
95	0xbf005b8e	-0.501397
96	0xbec33902	-0.3812943
97	0xbe08bf44	-0.13354212
98	0xbf0192d1	-0.5061465
99	0x3ee87ab2	0.4540611
100	0x3ed62d53	0.41831455
101	0x3e0ca6d4	0.13735515
102	0xbeb37d2e	-0.35056442
103	0xbef2cb36	-0.47420663
104	0xbe1fa550	-0.15590405
105	0xbecdc437	-0.40188763
106	0x3e1b9365	0.15192945
107	0xbe1ef78a	-0.15524116
108	0x3ec13e2f	0.37742755
109	0x3e2c23ff	0.16810606
110	0xbea11736	-0.3146302
111	0xbeb053c6	-0.34438914
112	0x3d2ace64	0.041700736
113	0x3e9054cd	0.28189698
114	0x3de06d4f	0.10958349
115	0x3e9c382d	0.3051161
116	0xbe8886eb	-0.26665434
117	0xbf1965de	-0.5992106
118	0xbf2cf05d	-0.67554265
119	0xbe9807a6	-0.29693335
120	0xbe608ad0	-0.21927953
121	0x3dd8d6da	0.10587855
122	0x3cfdfe00	0.031004906
123	0x3c967427	0.018365933
124	0xbe050c07	-0.1299287
125	0xbe8cd12c	-0.27503335
126	0xbe228c49	-0.15873827
127	0xbe79e4c6	-0.24403676
128	0xbda41573	-0.080119036
129	0x3ca47724	0.020076342
130	0x3bb28e2a	0.005449076
131	0x3c39d2e5	0.011341785
132	0x3e1f99e0	0.15586042
133	0x3e15e5f8	0.14638507
134	0xbe41381f	-0.18869065
135	0xbe8fc0df	-0.28076836
136	0xbea647f7	-0.3247678
137	0xbe9eb314	-0.30996
138	0xbed5984b	-0.41717753
139	0x3c3cda5d	0.011526671
140	0x3c3eca8a	0.011644969
141	0xbdf1632e	-0.11786495
142	0xbcd8348d	-0.026392246
143	0xbe993c04	-0.299286
144	0x3ea21f65	0.31664577
145	0xbe8f843a	-0.28030568
146	0xbca6e7b8	-0.020374164
147	0x3dad9397	0.08475416
148	0xbbfc2d4f	-0.007695831
149	0x3ee5596e	0.44794792
150	0xbefc086b	-0.49225172
151	0xbee2231a	-0.44167405
152	0xbe8e6b89	-0.27816418
153	0x3e0e12d5	0.13874371
154	0x3ebe3117	0.37146828
155	0x3e0643e8	0.13111842
156	0x3e303d48	0.17210877
157	0xbe99b377	-0.30019733
158	0xbf2b1d95	-0.66842014
159	0xbe75cd75	-0.24004157
160	0xbea71389	-0.32632092
161	0x3e0b96a6	0.13631687
162	0xbd75321b	-0.059862237
163	0x3e539493	0.20662145
164	0x3d06f164	0.03294505
165	0xbe6bdade	-0.2303271
166	0xbe4cdc66	-0.2000595
167	0xbe2d3039	-0.16912927
168	0xbebeed28	-0.3729031
169	0xbeca8a39	-0.3955858
170	0xbf011421	-0.5042134
171	0xbe598338	-0.21241462
172	0xbecbb540	-0.3978672
173	0x3d859ab3	0.06523647
174	0x3e487248	0.19574845
175	0xbea5033b	-0.32229027
176	0xbdaf9436	-0.08573191
177	0xbe8a1625	-0.2697002
178	0x3ee511af	0.44740054
179	0xbb8f9d27	-0.0043827477
180	0xbf112a49	-0.5670515
181	0xbee28e12	-0.44249016
182	0xbe669e5c	-0.22521347
183	0x3d898668	0.06715089
184	0x3e1c6a71	0.15274979
185	0xbe00fc90	-0.12596345
186	0xbf1f56d6	-0.62241876
187	0x3e1e7f4f	0.15478252
188	0x3eef17cf	0.46697852
189	0xbe9bf2e9	-0.30458763
190	0x3d907b04	0.07054713
191	0xbde235f8	-0.1104545
192	0xbe8adb74	-0.27120554
193	0xbe44dc39	-0.19224633
194	0x3f0c2d8f	0.54757017
195	0x3e5dfc77	0.21678339
196	0xbf4d5697	-0.8021025
197	0xbee33ce0	-0.4438238
198	0xbf05aa3d	-0.5221289
199	0x3ecb8efb	0.39757523
200	0xbf33f0c5	-0.7028926
201	0xbf8da231	-1.1065122
202	0xbf10a654	-0.56503797
203	0xbf524362	-0.8213407
204	0xbf925cfc	-1.1434627
205	0x3e91e7d1	0.28497174
206	0x3e6bed78	0.23039806
207	0x3f131c98	0.57465506
208	0x3e56e959	0.20987453
209	0x3e1d674b	0.15371434
210	0x3defad03	0.11702921
211	0xbda0dd67	-0.07854729
212	0xbe82b61c	-0.25529563
213	0xbeb918fd	-0.36151877
214	0xbeeb5e55	-0.45970407
215	0xbeb19249	-0.3468192
216	0x3eab3e4b	0.33445963
217	0x3e3cab6f	0.18424772
218	0x3e5212e4	0.20515019
219	0xbe9f98cf	-0.3117127
220	0x3e920921	0.2852259
221	0x3e38648e	0.18007109
222	0xbd70711f	-0.05870163
223	0xbe4987f3	-0.19680767
224	0xbec5e446	-0.3865072
225	0xbe6c2be6	-0.23063621
226	0xbe760c0f	-0.24028037
227	0x3ece8d03	0.40341958
228	0x3ecbad57	0.39780685
229	0x3deca21a	0.11554356
230	0x3ea4c84e	0.3218407
231	0x3e4387c1	0.19094755
232	0x3ebc1784	0.3673669
233	0xbf149b4f	-0.5804948
234	0xbe7580cb	-0.23974912
235	0xbceba6a7	-0.02876599
236	0x3c0029c1	0.007822455
237	0x3e8911ac	0.26771295
238	0xbf17dd4c	-0.5932205
239	0xbf2bd563	-0.6712248
240	0xbebff75c	-0.37493408
241	0x3e6d581a	0.2317814
242	0x3f0971f9	0.53689533
243	0x3dde638e	0.10858832
244	0xbde58ed0	-0.1120888
245	0xbeeb23af	-0.45925662
246	0xbcc400a7	-0.023926092
247	0x3ebb19ae	0.3654303
248	0xbe8d2014	-0.27563536
249	0xbf472ad5	-0.7779973
250	0xbca676b6	-0.020320278
251	0xbf2b9543	-0.6702463
252	0xbf1a1b68	-0.6019807
253	0xbe2be40b	-0.1678621
254	0xbeb6668c	-0.35625112
255	0x3e953c13	0.29147395

linear1.bias f4 [256]
0	0xbe286010	-0.16442895
1	0x3e6b65d3	0.22988062
2	0x3da2336d	0.07919965
3	0x3e21b64d	0.15792198
4	0x3e87665f	0.2644529
5	0x3ee9b304	0.4564439
6	0xbe493010	-0.1964724
7	0xbe7f2b24	-0.249188
8	0xbe4475cc	-0.19185561
9	0x3e029058	0.12750375
10	0x3e65d7c7	0.22445594
11	0xbd63011f	-0.05542099
12	0xbd66c066	-0.05633583
13	0xbe3305b3	-0.17482643
14	0x3e5dba21	0.21653034
15	0x3d69790a	0.057000197
16	0xbd9ea7ff	-0.077468865
17	0x3d297e4d	0.041380215
18	0x3e353839	0.17697228
19	0x3e5fcb5b	0.21854918
20	0x3e4493ba	0.19196978
21	0x3dc1cacb	0.09462508
22	0x3dad5796	0.08463971
23	0x3df0beb2	0.11755122
24	0xbdfe3cab	-0.12413915
25	0xbd257f91	-0.04040486
26	0xbe95eca0	-0.29282093
27	0xbe8fbf49	-0.28075626
28	0x3ecdc4e9	0.40189293
29	0xba01c03a	-0.00049496035
30	0xbdf4c6cf	-0.11951982
31	0x3ee94acc	0.45564878
32	0xbe1e62b7	-0.15467344
33	0x3e3e872d	0.18606253
34	0x3e9e35ff	0.3090057
35	0xbe4fb553	-0.20284013
36	0x3d5a064b	0.053228658
37	0x3ec6be6a	0.3881715
38	0x3dfb405f	0.12268137
39	0x3ea294dd	0.317542
40	0x3c8e50d7	0.017372532
41	0x3e6c7f3e	0.23095414
42	0x3e6bc2df	0.23023556
43	0x3e0a8014	0.1352542
44	0x3e6de6b7	0.23232542
45	0x3e252a0b	0.1612932
46	0x3d409a50	0.047022164
47	0xbefa1be6	-0.4884941
48	0xbd77e9a9	-0.06052557
49	0xbe7e0f1d	-0.24810453
50	0x3d93265b	0.0718505
51	0xbcba382e	-0.022731867
52	0x3e5c027b	0.21485321
53	0xbd903c1b	-0.07042714
54	0xbe2e9a91	-0.1705115
55	0xbe3703b6	-0.1787251
56	0xbd9a1bc3	-0.075248264
57	0xbead8f47	-0.33898374
58	0xbdc9d5b3	-0.09855213
59	0xbd740eee	-0.05958455
60	0xbd9fc864	-0.07801893
61	0xbdaeeb98	-0.0854103
62	0xbcc55deb	-0.024092635
63	0xbba1cf80	-0.004938066
64	0xbe457593	-0.19283132
65	0xbddc1545	-0.10746244
66	0xbab83b92	-0.0014055839
67	0xbe35a492	-0.1773856
68	0xbe7643f9	-0.24049367
69	0xbea20697	-0.31645653
70	0xbe75b3a9	-0.23994316
71	0x3d86f39e	0.06589435
72	0xbca2fd74	-0.019896246
73	0x3eb525c1	0.35380366
74	0x3dad2ec1	0.08456183
75	0xbb3b77bf	-0.002860531
76	0x3e4b9f47	0.19884978
77	0xbe68ea20	-0.22745562
78	0x3eac6077	0.33667347
79	0xbe5654ce	-0.20930788
80	0x3e33465f	0.17507313
81	0x3d888d35	0.06667558
82	0xbd4eed87	-0.050519492
83	0x3e13d353	0.14436083
84	0xbddd30fd	-0.108003594
85	0xbec99662	-0.39372545
86	0xbd707d51	-0.05871326
87	0xbdb4a8dc	-0.0882127
88	0x3d949206	0.07254414
89	0xbe8238d0	-0.2543397
90	0x3e640f0f	0.2227137
91	0x3e824b7b	0.25448212
92	0xbeb26032	-0.34839016
93	0xbd853b99	-0.06505508
94	0x3e84282d	0.25811902
95	0xbdd3612a	-0.10321267
96	0xbea70f13	-0.32628688
97	0xbdac0118	-0.08398646
98	0x3ea03390	0.3128934
99	0xbefb3ca5	-0.49069706
100	0xbd70dc3b	-0.05880378
101	0xbe962844	-0.29327595
102	0xbe4dbabe	-0.20090768
103	0x3e087743	0.13326745
104	0xbecfebd7	-0.4060962
105	0xbd1c781c	-0.038200483
106	0x3cea657d	0.028612847
107	0x3d08ff4f	0.033446606
108	0xbed6153d	-0.4181308
109	0x3ec45de9	0.38352898
110	0xbd15c01d	-0.036560167
111	0xbe3c2b18	-0.18375814
112	0xbdc26832	-0.0949253
113	0xbe7bf4d9	-0.2460512
114	0xbecb2117	-0.39673683
115	0x3e2f5af4	0.1712454
116	0x3e3c5141	0.18390371
117	0xbe433bec	-0.19065827
118	0x3e3c81c0	0.1840887
119	0xbbe5f5a7	-0.0070178094
120	0xbe5d3442	-0.21601966
121	0xbd381f47	-0.044951703
122	0xbdea1b9c	-0.11431047
123	0xbe987686	-0.29777926
124	0xbce41579	-0.02784227
125	0xbaebd4db	-0.0017992513
126	0x3d6ee482	0.05832339
127	0x3e1bfa0a	0.15232101
128	0x3ec2b384	0.38027585
129	0xbe650e8f	-0.22368835
130	0xbf162ba1	-0.5866032
131	0x3dfc0e8c	0.12307462
132	0xbe5d8363	-0.21632151
133	0x3d15155f	0.036397334
134	0x3d8a79e8	0.06761533
135	0xbf14b7cb	-0.58092946
136	0xbd4e6fb9	-0.050399516
137	0xbea29cdc	-0.317603
138	0xbe78fda8	-0.24315512
139	0x3e7d79ae	0.24753448
140	0xbdaab578	-0.08335394
141	0xbe763dea	-0.24047056
142	0xbeca7bfc	-0.39547718
143	0x3d833cd7	0.06408089
144	0xbd836532	-0.06415786
145	0xbe648140	-0.2231493
146	0x3e87ba31	0.2650924
147	0xbea7f476	-0.32803696
148	0xbdd294c2	-0.102822796
149	0xbd6370c6	-0.05552747
150	0x3e959277	0.29213306
151	0xbe08541e	-0.13313338
152	0x3da423aa	0.08014615
153	0x3e9fcffd	0.3121337
154	0x3f067aee	0.52531326
155	0xbd0dfa2b	-0.034662407
156	0x3b9811e6	0.0046408055
157	0xbddd27b2	-0.10798587
158	0x3dac5255	0.08414141
159	0xbed779f9	-0.42085245
160	0xbdc6412f	-0.096804015
161	0x3c86cf76	0.016456347
162	0xbedd9eab	-0.43285117
163	0xbd9215cb	-0.07133063
164	0x3dd1ab9d	0.10237811
165	0x3de67c60	0.112541914
166	0xbe824b94	-0.25448287
167	0xbe827118	-0.2547691
168	0xbd8a6550	-0.06757605
169	0xbe848039	-0.25879076
170	0xbe07fd3f	-0.132802
171	0xbe8636a7	-0.2621357
172	0x3e4debe1	0.20109512
173	0xbe612813	-0.21987943
174	0xbe9cc7e9	-0.3062127
175	0xbd521d49	-0.05129746
176	0xbe7ffd45	-0.24998958
177	0xbe24f5fe	-0.16109464
178	0xbe27c8b8	-0.16385162
179	0x3de47f47	0.11157089
180	0xbe5750e0	-0.21026945
181	0xbf040f04	-0.5158541
182	0x3da2b348	0.079443514
183	0xbe7ba56d	-0.24574824
184	0xbcdd350b	-0.027002832
185	0x3ba6b728	0.005087752
186	0xbdc65401	-0.09683991
187	0x3d6dd197	0.05806121
188	0xbd5e02c5	-0.05420186
189	0x3e6dedab	0.23235194
190	0xbccd943c	-0.025095098
191	0x3df3fbed	0.119132854
192	0x3f5b4df8	0.85665846
193	0xbeb410f3	-0.3516918
194	0x3c8af15a	0.016960789
195	0xbdbc1629	-0.09183914
196	0x3e33790a	0.17526641
197	0x3e8e86ac	0.2783712
198	0x3e745f80	0.23864555
199	0xbe419387	-0.18903933
200	0xbef19578	-0.47184348
201	0xbde3a58e	-0.111155614
202	0xbd468a22	-0.048471577
203	0x3ea75386	0.3268091
204	0xbd0c4bb7	-0.034251895
205	0xbe8508df	-0.2598333
206	0xbc24d871	-0.010061369
207	0x3e4a22c0	0.19739819
208	0xbd65b3e0	-0.056079745
209	0xbeae760d	-0.3407444
210	0x3e0fc145	0.1403857
211	0x3ec1dbf8	0.37863135
212	0x3ea05a70	0.31318998
213	0x3ebc64ef	0.36795756
214	0xbad9b25a	-0.0016608939
215	0x3d28a2ab	0.041170757
216	0x3e3a02e2	0.18165162
217	0x3e11374d	0.14181252
218	0x3e2e669c	0.1703133
219	0x3df8e00a	0.12152107
220	0xbefe9361	-0.49721816
221	0xbd4ab68c	-0.049490497
222	0xbc6913a9	-0.014225879
223	0x3e4725df	0.1944804
224	0xbecc61f0	-0.3991847
225	0xbea27e3c	-0.31736934
226	0xbe717b89	-0.23582281
227	0xbeb72c7a	-0.3577612
228	0x3d7d3adb	0.061823707
229	0xbdd4aeab	-0.10384878
230	0x3d9b8b73	0.07594957
231	0x3d62b537	0.0553486
232	0xbe915599	-0.28385618
233	0x3e836946	0.25666255
234	0x3da035f9	0.078227945
235	0xbc8b5b68	-0.01701136
236	0xbec4cddd	-0.3843831
237	0x3cde345f	0.027124582
238	0x3df1445d	0.117806174
239	0x3e644b86	0.22294435
240	0xbe7093b8	-0.2349385
241	0x3d9a8435	0.07544748
242	0xbeaf0318	-0.34182048
243	0xbef43b4c	-0.4770149
244	0x3f134dad	0.575404
245	0xbc9f50f2	-0.019447777
246	0xbe0b1e63	-0.1358581
247	0xbe8a63f1	-0.27029374
248	0x3de96363	0.1139591
249	0x3e338945	0.17532833
250	0xbeaeb76f	-0.34124324
251	0x3ed21bf3	0.4103695
252	0xbf05f32c	-0.52324176
253	0x3f1eaef6	0.6198572
254	0x3ddc5b63	0.10759618
255	0xbe3d9e0a	-0.18517318

linear2.weight f4 [3, 256]
0	0x3dd3cb20	0.103414774
1	0xbe6054c1	-0.21907331
2	0xbf19b02b	-0.60034436
3	0xbe794f38	-0.24346626
4	0xbe5d457d	-0.21608539
5	0x3e9385c1	0.28812984
6	0xbdcfd412	-0.10147871
7	0xbd5c600a	-0.053802527
8	0xbc80d61a	-0.015727092
9	0xbe56bf28	-0.20971358
10	0x3e02a753	0.12759142
11	0xbd414d0d	-0.047192622
12	0xbdffe894	-0.12495533
13	0x3e87556a	0.26432353
14	0xbe45af93	-0.19305257
15	0xbe12c74a	-0.14333835
16	0x3caa5144	0.020790704
17	0xbeb8dd65	-0.3610641
18	0xbf8ea0aa	-1.1142781
19	0xbe2ebb8b	-0.1706373
20	0xbe6774be	-0.22603127
21	0x3eb38dce	0.35069126
22	0x3ea849b8	0.32868743
23	0xbe5bad8d	-0.21452923
24	0xbeb457fd	-0.3522338
25	0xbeca2e31	-0.39488366
26	0x3b26f3e0	0.002547495
27	0x3e736be6	0.23771629
28	0x3ea727f4	0.3264767
29	0xbe053b4d	-0.13010903
30	0x3e3a1b5b	0.18174498
31	0xbefde607	-0.4958956
32	0x3b26315e	0.0025359015
33	0xbe65d7ba	-0.22445574
34	0x3e151698	0.145594
35	0xbe86d847	-0.26336882
36	0xbdba2406	-0.09088902
37	0x3e8d7681	0.27629474
38	0xbe609a91	-0.21933962
39	0x3e74bbb2	0.23899725
40	0xbe7995de	-0.24373576
41	0xbe8306c8	-0.2559111
42	0xbe98b44e	-0.29825062
43	0xbf0089c9	-0.50210243
44	0xbe36052e	-0.17775413
45	0x3e89c93a	0.26911336
46	0xbe4be09c	-0.199099
47	0x3e18be79	0.1491641
48	0x3e3df6e7	0.18551217
49	0x3d472044	0.048614755
50	0x3dcd0ee1	0.100126036
51	0x3cafb780	0.021449804
52	0x3d26fd5d	0.04076897
53	0xbde1a2ef	-0.11017405
54	0xbd36b936	-0.044610225
55	0xbd8b9067	-0.06814652
56	0xbe34d2e8	-0.1765858
57	0xbd13598f	-0.03597408
58	0x3a668357	0.0008793375
59	0x3c3f1c02	0.011664392
60	0xbd677ddc	-0.056516513
61	0x3d8a307f	0.06747531
62	0xbdb41dde	-0.08794759
63	0x3d02bf62	0.031920798
64	0x3e16a511	0.14711405
65	0xbead8835	-0.3389298
66	0xbe051efa	-0.13000098
67	0xbe03eadb	-0.12882559
68	0x3e1d563d	0.15364929
69	0xbd85c67d	-0.06531999
70	0xbed0b757	-0.40764877
71	0x3ec96851	0.393374
72	0xbf034b75	-0.51287013
73	0xbf28c024	-0.65918183
74	0xbf7e0716	-0.9922956
75	0xbd8ff873	-0.0702981
76	0xbe6ea84b	-0.23306386
77	0xbe201dab	-0.15636317
78	0xbf5275c4	-0.82210946
79	0xbe60c99d	-0.2195191
80	0xbe741e4e	-0.23839685
81	0xbe57a3ec	-0.21058625
82	0xbd4a2be2	-0.049358256
83	0xbe6f68f5	-0.23379882
84	0x3e515938	0.2044419
85	0xbf59e000	-0.8510742
86	0xbce31afb	-0.027722826
87	0xbea58eb8	-0.32335448
88	0x3d011a59	0.031519268
89	0xbdb36270	-0.0875901
90	0xbd984f08	-0.07436949
91	0xbef038ec	-0.46918428
92	0x3d4e61cb	0.05038623
93	0x3d909616	0.070598766
94	0xbe9b9ded	-0.30393925
95	0xbd80ea80	-0.06294727
96	0x3a0e4fc5	0.00054287567
97	0xbdb5cc06	-0.08876805
98	0xbec4a080	-0.38403702
99	0x3cc43b66	0.023954105
100	0xbe6884b4	-0.22706872
101	0x3ca5dafc	0.020246021
102	0xbd28ae7f	-0.041182037
103	0xbdf233bb	-0.11826273
104	0x3d400e00	0.04688835
105	0x3f0e82e4	0.55668473
106	0x3e2ba866	0.16763458
107	0x3e16236c	0.1466195
108	0xbf5adc52	-0.8549243
109	0xbe7f7cc4	-0.24949938
110	0xbdd714a1	-0.105019815
111	0xbf3f8b8c	-0.74822307
112	0xbd5a70de	-0.053330295
113	0xbcf91032	-0.03040323
114	0xbf7b645f	-0.9820003
115	0x3ea1a2d1	0.31569532
116	0x3eafd1a2	0.34339625
117	0xbe7dac51	-0.24772765
118	0xbe081770	-0.1329019
119	0xbe68ff45	-0.22753628
120	0xbf088263	-0.53323954
121	0x3e9a5f9a	0.30151063
122	0x3dc1d589	0.09464557
123	0x3e048318	0.12940633
124	0x3de908d2	0.113786355
125	0xbe6ebbf6	-0.23313889
126	0xbe0c9121	-0.13727237
127	0xbe4d074d	-0.20022316
128	0xbe0b66d9	-0.13613452
129	0x3ea24574	0.31693614
130	0x3dc8a926	0.097978875
131	0xbe3d6b0a	-0.18497863
132	0xbda4844e	-0.080330476
133	0x3dd3cfa8	0.10342342
134	0x3e1bba2f	0.15207742
135	0x3e7857de	0.24252269
136	0xbefb67dc	-0.49102676
137	0xbebd70e7	-0.370002
138	0x3d03ce8e	0.032179408
139	0xbe919b1c	-0.28438652
140	0x3cdd38a8	0.027004555
141	0x3d91215d	0.07086442
142	0xbe80ccde	-0.251563
143	0x3ec5e21e	0.38649076
144	0x3cb07562	0.021540347
145	0xbe89eef7	-0.26940128
146	0xbe838540	-0.256876
147	0x3c44db02	0.012015106
148	0x3d644d82	0.05573798
149	0xb9ea12bb	-0.00044645913
150	0xbe3f5a74	-0.18686849
151	0x3e367cf5	0.17821105
152	0xbe8ca573	-0.27469978
153	0xbedeac53	-0.43490848
154	0x3e807150	0.2508645
155	0xbe1d5f23	-0.15368323
156	0xbe673047	-0.2257701
157	0xbc95eb70	-0.018300742
158	0xbe3d0afb	-0.1846122
159	0x3cb652dc	0.022256307
160	0xbe38c39e	-0.18043372
161	0x3ea85e05	0.3288423
162	0xbe37853f	-0.17921923
163	0xbcb3e201	-0.021958353
164	0xbe736d41	-0.23772146
165	0xbdac6bea	-0.084190205
166	0x3d2990c4	0.041397825
167	0xbbbd04be	-0.0057683876
168	0xbe522783	-0.20522885
169	0x3eaf988d	0.34296075
170	0xbdc90d36	-0.09816973
171	0xbe186afe	-0.14884564
172	0xbdc476ec	-0.09592995
173	0xbec74790	-0.38921785
174	0x3c7cd9d4	0.015432794
175	0xbe2f1c9c	-0.17100757
176	0xbe40d76c	-0.18832177
177	0x3c3474a1	0.011014135
178	0x3c6d10ac	0.014469307
179	0xbee90e02	-0.455185
180	0xbb12bcc4	-0.0022390345
181	0xbf2251d7	-0.6340613
182	0xbd516387	-0.051120307
183	0x3df2b23e	0.11850403
184	0x3d5b870e	0.053595595
185	0xbd170f58	-0.036879867
186	0xbe11efb0	-0.1425159
187	0xbe0fc0bb	-0.14038365
188	0x3ec2575b	0.37957272
189	0xbe96a4e0	-0.29422665
190	0xbd9c2703	-0.076246284
191	0xbe57ad7f	-0.21062277
192	0x3ee51805	0.44744888
193	0xbd15760b	-0.036489528
194	0xbd63eadc	-0.0556439
195	0xbeb54dbe	-0.35410875
196	0xbe861019	-0.26184157
197	0x3efea784	0.4973718
198	0x3e972e7a	0.29527646
199	0x3d5b4f69	0.05354253
200	0xbe8e3a31	-0.27778772
201	0xbd148fbb	-0.036269885
202	0xbe131877	-0.14364801
203	0xbe970b3b	-0.29500756
204	0x3ed88c5a	0.4229458
205	0xbd68139e	-0.056659333
206	0xbe45dad3	-0.19321756
207	0x3e8bfa0f	0.27339217
208	0xbec1c336	-0.37844247
209	0xbd949e76	-0.072567865
210	0xbe5a7ea2	-0.21337369
211	0x3efaf787	0.49016973
212	0xbe779b97	-0.24180447
213	0xbf3556d1	-0.70835596
214	0xbe28c765	-0.16482313
215	0xbe0c60ed	-0.13708849
216	0x3cb1cecd	0.021705056
217	0x3e4ca565	0.19984968
218	0xbdfdb357	-0.12387722
219	0xbea914d2	-0.33023697
220	0x3f3d247c	0.73883796
221	0xbe50a999	-0.20377196
222	0xbd34ef81	-0.04417372
223	0xbeadd625	-0.33952442
224	0xbd9332b2	-0.07187404
225	0xbc92e3da	-0.017930914
226	0x3e832d8e	0.25620693
227	0x3e962e19	0.29332045
228	0xbe4b528d	-0.1985571
229	0xbf0e3df7	-0.555633
230	0x3e69596d	0.2278802
231	0xbe43f8b6	-0.19137844
232	0x3d1fbdba	0.038999297
233	0xbe6e7e58	-0.23290384
234	0xbe8cb39a	-0.27480775
235	0x3c8a73c1	0.016900899
236	0xbebe28ad	-0.37140408
237	0xbe33d6d5	-0.1756242
238	0x3e2fe6b8	0.17177856
239	0xbe7762c9	-0.24158777
240	0xbcce61f4	-0.025193192
241	0xbe113084	-0.14178663
242	0x3d59f638	0.053213328
243	0xbd7e8a74	-0.062143758
244	0x3ec0c87b	0.37652954
245	0x3e3e3e8a	0.18578544
246	0xbd4a5384	-0.049396053
247	0xbc3f78cb	-0.011686514
248	0xbe88bca7	-0.2670643
249	0xbdf19feb	-0.1179808
250	0xbe9a1940	-0.3009739
251	0xbed30bd5	-0.41219965
252	0x3e570763	0.20998912
253	0x3efb100a	0.49035674
254	0xbe5c9a31	-0.21543194
255	0x3d6c7465	0.05772819

linear2.bias f4 [3]
0	0xbb9b238d	-0.0047344626
1	0xbdc70296	-0.0971729
2	0xbe738484	-0.2378102
